…
            nn.ConvTranspose2d(in_channels=128, out_channels=32, kernel_size=3, output_padding=1),
            nn.ReLU(),
            nn.ConvTranspose2d(in_channels=32, out_channels=3, kernel_size=3, output_padding=1),
            nn.Sigmoid()
        )

    def forward(self, x):
        x = self.encoder(x)
        x = self.decoder(x)
        return x
</code></pre>
<p>And here are the shapes given by the torchsummary package</p>
<pre><code>----------------------------------------------------------------
        Layer (type)               Output Shape         Param #
================================================================
            Conv2d-1         [-1, 32, 255, 255]             896
              ReLU-2         [-1, 32, 255, 255]               0
         MaxPool2d-3         [-1, 32, 127, 127]               0
            Conv2d-4        [-1, 128, 127, 127]          36,992
              ReLU-5        [-1, 128, 127, 127]               0
         MaxPool2d-6          [-1, 128, 63, 63]               0
            Conv2d-7          [-1, 128, 63, 63]         147,584
              ReLU-8          [-1, 128, 63, 63]               0
   ConvTranspose2d-9           [-1, 32, 66, 66]          36,896
             ReLU-10           [-1, 32, 66, 66]               0
  ConvTranspose2d-11            [-1, 3, 69, 69]             867
          Sigmoid-12            [-1, 3, 69, 69]               0
</code></pre>
<p>I have seen from another post that the <code>output_padding</code> option in the decoder part would help with the output shape but it hasn't worked for me.</p>
<p>I don't know what the problem might be, coming from Tensorflow I would've used an Upscale layer but from what I've seen this isn't the way to do it in PyTorch.</p>
<p>Could anyone explain to me why my shapes are broken with my current model? Thanks</p>
…
