…
<p>However when pritting the summary <a href=""https://github.com/TylerYep/torchinfo"" rel=""nofollow noreferrer"">torchinfo</a>, we can see that summary of the registered methods using 2x zipped <code>nn.ModuleList</code> looks different compared to the summary where one single <code>nn.ModuleList</code> was used. I suspect that this can cause issues for training and inference in the future.</p>
<p><code>zip(nn.ModuleList(), nn.ModuleList())</code>:</p>
<pre><code>========================================================================================================================
Layer (type:depth-idx)                        Input Shape               Output Shape              Param #
========================================================================================================================
MyNet                                     [16, 4, 128, 256]         [16, 3, 128, 256]         --
├─ModuleList: 1-13                            --                        --                        (recursive)
│    └─_ConvBlock: 2-1                        [16, 4, 128, 256]         [16, 84, 128, 256]        26,360
├─ModuleList: 1-14                            --                        --                        (recursive)
│    └─_DownsampleBlock: 2-2                  [16, 84, 128, 256]        [16, 64, 64, 128]         48,448
├─ModuleList: 1-13                            --                        --                        (recursive)
│    └─_ConvBlock: 2-3                        [16, 64, 64, 128]         [16, 144, 64, 128]        70,160
├─ModuleList: 1-14                            --                        --                        (recursive)
│    └─_DownsampleBlock: 2-4                  [16, 144, 64, 128]        [16, 128, 32, 64]         166,016
├─ModuleList: 1-13                            --                        --                        (recursive)
│    └─_ConvBlock: 2-5                        [16, 128, 32, 64]         [16, 208, 32, 64]         116,880
├─ModuleList: 1-14                            --                        --                        (recursive)
│    └─_DownsampleBlock: 2-6                  [16, 208, 32, 64]         [16, 128, 16, 32]         239,744
├─ModuleList: 1-13                            --                        --                        (recursive)
│    └─_ConvBlock: 2-7                        [16, 128, 16, 32]         [16, 208, 16, 32]         116,880
├─ModuleList: 1-14                            --                        --                        (recursive)
│    └─_DownsampleBlock: 2-8                  [16, 208, 16, 32]         [16, 128, 8, 16]          239,744
├─ModuleList: 1-13                            --                        --                        (recursive)
│    └─_ConvBlock: 2-9                        [16, 128, 8, 16]          [16, 208, 8, 16]          116,880
├─ModuleList: 1-14                            --                        --                        (recursive)
│    └─_DownsampleBlock: 2-10                 [16, 208, 8, 16]          [16, 256, 4, 8]           479,488
├─ModuleList: 1-13                            --                        --                        (recursive)
│    └─_ConvBlock: 2-11                       [16, 256, 4, 8]           [16, 336, 4, 8]           210,320
├─ModuleList: 1-14                            --                        --                        (recursive)
│    └─_DownsampleBlock: 2-12                 [16, 336, 4, 8]           [16, 256, 2, 4]           774,400
├─ModuleList: 1-13                            --                        --                        (recursive)
│    └─_ConvBlock: 2-13                       [16, 256, 2, 4]           [16, 336, 2, 4]           210,320
├─ModuleList: 1-14                            --                        --                        (recursive)
│    └─_DownsampleBlock: 2-14                 [16, 336, 2, 4]           [16, 512, 1, 2]           1,548,800
</code></pre>
<p>single <code>nn.ModuleList()</code>:</p>
<pre><code>MyNet                                     [16, 4, 128, 256]         [16, 3, 128, 256]         --
├─ModuleList: 1-1                             --                        --                        --
│    └─_ConvBlock: 2-1                        [16, 4, 128, 256]         [16, 84, 128, 256]        26,360
│    └─_DownsampleBlock: 2-2                  [16, 84, 128, 256]        [16, 64, 64, 128]         48,448
│    └─_ConvBlock: 2-3                        [16, 64, 64, 128]         [16, 144, 64, 128]        70,160
│    └─_DownsampleBlock: 2-4                  [16, 144, 64, 128]        [16, 128, 32, 64]         166,016
│    └─_ConvBlock: 2-5                        [16, 128, 32, 64]         [16, 208, 32, 64]         116,880
│    └─_DownsampleBlock: 2-6                  [16, 208, 32, 64]         [16, 128, 16, 32]         239,744
│    └─_ConvBlock: 2-7                        [16, 128, 16, 32]         [16, 208, 16, 32]         116,880
│    └─_DownsampleBlock: 2-8                  [16, 208, 16, 32]         [16, 128, 8, 16]          239,744
│    └─_ConvBlock: 2-9                        [16, 128, 8, 16]          [16, 208, 8, 16]          116,880
│    └─_DownsampleBlock: 2-10                 [16, 208, 8, 16]          [16, 256, 4, 8]           479,488
│    └─_ConvBlock: 2-11                       [16, 256, 4, 8]           [16, 336, 4, 8]           210,320
│    └─_DownsampleBlock: 2-12                 [16, 336, 4, 8]           [16, 256, 2, 4]           774,400
│    └─_ConvBlock: 2-13                       [16, 256, 2, 4]           [16, 336, 2, 4]           210,320
│    └─_DownsampleBlock: 2-14                 [16, 336, 2, 4]           [16, 512, 1, 2]           1,548,800
</code></pre>
","0","Question"
"79546578","","<p>I'm creating an AI model to generate density plots of crowds. When splitting the dataset into two, one for training and one for validation, I create the two data sets and try to load the datasets using <code>torch.utils.data.DataLoader(test_set, batch_size=batch_size, shuffle=False)</code>. After that, to test the data I iterate through and use the next function to get the next element of the dataset and then I get the TypeError.
…
