…
<li>I hope to read articles of linear regression before learning about deep learning, following fundamental theory of linear algebra. Your learning curve can be followed with: linear regression, classification -&gt; multi layer perceptron(same as <code>Linear</code> in Pytorch) -&gt; convolution block -&gt; transformers -&gt; image transformers(Swin transformer on post).&quot;</li>
</ul>
","2024-06-20 05:35:02","0","Answer"
"78642379","","Why sometime the out_features in Linear layer is higher than in_features?","<p>I understand that in the out_features in Linear often lower than the in_features to get more meaningful feature but some time I see the out_features is higher than the in_features, sometimes it's equal.
For example, like the architecture below in swin transformer v2 in pytorch:</p>
<pre><code>Sequential(
      (0): SwinTransformerBlockV2(
        (norm1): LayerNorm((768,), eps=1e-05, elementwise_affine=True)
        (attn): ShiftedWindowAttentionV2(
          (qkv): Linear(in_features=768, out_features=2304, bias=True) #Higher
          (proj): Linear(in_features=768, out_features=768, bias=True) #Equal
          (cpb_mlp): Sequential(
            (0): Linear(in_features=2, out_features=512, bias=True)
            (1): ReLU(inplace=True)
            (2): Linear(in_features=512, out_features=24, bias=False) # Lower
          )
</code></pre>
<p>I want to ask:</p>
<ol>
<li>What are the purposes by having higher, equal, lower out_features in the network?</li>
<li>Can you provide me some papers about this matter and network architetures having this?</li>
</ol>
<p>I'm just start learning about deep learning and AI, if you can provide some course about building network, it will be great help.</p>
…
","2024-01-02 15:01:22","0","Answer"
"77746352","","How to fine tune FC1 and FC2 in VGG-19 PyTorch?","<p>I need to fine tune pretrained <a href=""https://i.sstatic.net/9SxXe.png"" rel=""nofollow noreferrer"">VGG-19</a> with pytorch. I have these specific tasks:</p>
<ol>
<li>Finetune the weights of all layers in the VGG-19 network.</li>
<li>Finetune the weights of only two last fully connected (FC1 and FC2) layers
in the VGG-19 network. And this is the only information given to me.</li>
</ol>
<p>VGG-19 structure is like below:</p>
<pre class=""lang-py prettyprint-override""><code>VGG(
  (features): Sequential(
    (0): Conv2d(3, 64, kernel_size=(3, 3), stride=(1, 1), padding=(1, 1))
    (1): ReLU(inplace=True)
    (2): Conv2d(64, 64, kernel_size=(3, 3), stride=(1, 1), padding=(1, 1))
    (3): ReLU(inplace=True)
    (4): MaxPool2d(kernel_size=2, stride=2, padding=0, dilation=1, ceil_mode=False)
    (5): Conv2d(64, 128, kernel_size=(3, 3), stride=(1, 1), padding=(1, 1))
    (6): ReLU(inplace=True)
    (7): Conv2d(128, 128, kernel_size=(3, 3), stride=(1, 1), padding=(1, 1))
    (8): ReLU(inplace=True)
    (9): MaxPool2d(kernel_size=2, stride=2, padding=0, dilation=1, ceil_mode=False)
    (10): Conv2d(128, 256, kernel_size=(3, 3), stride=(1, 1), padding=(1, 1))
    (11): ReLU(inplace=True)
    (12): Conv2d(256, 256, kernel_size=(3, 3), stride=(1, 1), padding=(1, 1))
    (13): ReLU(inplace=True)
    (14): Conv2d(256, 256, kernel_size=(3, 3), stride=(1, 1), padding=(1, 1))
    (15): ReLU(inplace=True)
    (16): Conv2d(256, 256, kernel_size=(3, 3), stride=(1, 1), padding=(1, 1))
    (17): ReLU(inplace=True)
    (18): MaxPool2d(kernel_size=2, stride=2, padding=0, dilation=1, ceil_mode=False)
    (19): Conv2d(256, 512, kernel_size=(3, 3), stride=(1, 1), padding=(1, 1))
    (20): ReLU(inplace=True)
    (21): Conv2d(512, 512, kernel_size=(3, 3), stride=(1, 1), padding=(1, 1))
    (22): ReLU(inplace=True)
    (23): Conv2d(512, 512, kernel_size=(3, 3), stride=(1, 1), padding=(1, 1))
    (24): ReLU(inplace=True)
    (25): Conv2d(512, 512, kernel_size=(3, 3), stride=(1, 1), padding=(1, 1))
    (26): ReLU(inplace=True)
    (27): MaxPool2d(kernel_size=2, stride=2, padding=0, dilation=1, ceil_mode=False)
    (28): Conv2d(512, 512, kernel_size=(3, 3), stride=(1, 1), padding=(1, 1))
    (29): ReLU(inplace=True)
    (30): Conv2d(512, 512, kernel_size=(3, 3), stride=(1, 1), padding=(1, 1))
    (31): ReLU(inplace=True)
    (32): Conv2d(512, 512, kernel_size=(3, 3), stride=(1, 1), padding=(1, 1))
    (33): ReLU(inplace=True)
    (34): Conv2d(512, 512, kernel_size=(3, 3), stride=(1, 1), padding=(1, 1))
    (35): ReLU(inplace=True)
    (36): MaxPool2d(kernel_size=2, stride=2, padding=0, dilation=1, ceil_mode=False)
  )
  (avgpool): AdaptiveAvgPool2d(output_size=(7, 7))
  (classifier): Sequential(
    (0): Linear(in_features=25088, out_features=4096, bias=True)
    (1): ReLU(inplace=True)
    (2): Dropout(p=0.5, inplace=False)
    (3): Linear(in_features=4096, out_features=4096, bias=True)
    (4): ReLU(inplace=True)
    (5): Dropout(p=0.5, inplace=False)
    (6): Linear(in_features=4096, out_features=1000, bias=True)
  )
)
</code></pre>
<p>I tried to do first task like this and i think it is correct:</p>
<pre><code>model = models.vgg19(pretrained=True)

for param in model.parameters():
    param.requires_grad = True

model.classifier[6] = nn.Linear(4096, len(class_to_idx))
</code></pre>
<p>But i couldn't figure out second task, i tried this and i am not sure:</p>
…
