…
loss = nn.functional.mse_loss(u_t, self.kappa * u_xx)

## THIS FAILS
# Compute ∂loss/∂u
loss_u = torch.autograd.grad(
    loss,
    u,
    grad_outputs=torch.ones_like(loss),
    retain_graph=True,
    create_graph=True,
)[0]

# Return error on diffusion equation
return loss
</code></pre>
<p><strong>Model:</strong></p>
<pre><code>==========================================================================================
Layer (type:depth-idx)                   Output Shape              Param #
==========================================================================================
Sequential                               [1, 1]                    --
├─Linear: 1-1                            [1, 50]                   150
├─Tanh: 1-2                              [1, 50]                   --
├─Linear: 1-3                            [1, 50]                   2,550
├─Tanh: 1-4                              [1, 50]                   --
├─Linear: 1-5                            [1, 50]                   2,550
├─Tanh: 1-6                              [1, 50]                   --
├─Linear: 1-7                            [1, 50]                   2,550
├─Tanh: 1-8                              [1, 50]                   --
├─Linear: 1-9                            [1, 1]                    51
==========================================================================================
Total params: 7,851
Trainable params: 7,851
Non-trainable params: 0
Total mult-adds (M): 0.01
==========================================================================================
Input size (MB): 0.00
Forward/backward pass size (MB): 0.00
Params size (MB): 0.03
Estimated Total Size (MB): 0.03
==========================================================================================
…
<p>However when pritting the summary <a href=""https://github.com/TylerYep/torchinfo"" rel=""nofollow noreferrer"">torchinfo</a>, we can see that summary of the registered methods using 2x zipped <code>nn.ModuleList</code> looks different compared to the summary where one single <code>nn.ModuleList</code> was used. I suspect that this can cause issues for training and inference in the future.</p>
<p><code>zip(nn.ModuleList(), nn.ModuleList())</code>:</p>
<pre><code>========================================================================================================================
Layer (type:depth-idx)                        Input Shape               Output Shape              Param #
========================================================================================================================
MyNet                                     [16, 4, 128, 256]         [16, 3, 128, 256]         --
├─ModuleList: 1-13                            --                        --                        (recursive)
│    └─_ConvBlock: 2-1                        [16, 4, 128, 256]         [16, 84, 128, 256]        26,360
├─ModuleList: 1-14                            --                        --                        (recursive)
│    └─_DownsampleBlock: 2-2                  [16, 84, 128, 256]        [16, 64, 64, 128]         48,448
├─ModuleList: 1-13                            --                        --                        (recursive)
│    └─_ConvBlock: 2-3                        [16, 64, 64, 128]         [16, 144, 64, 128]        70,160
├─ModuleList: 1-14                            --                        --                        (recursive)
│    └─_DownsampleBlock: 2-4                  [16, 144, 64, 128]        [16, 128, 32, 64]         166,016
├─ModuleList: 1-13                            --                        --                        (recursive)
│    └─_ConvBlock: 2-5                        [16, 128, 32, 64]         [16, 208, 32, 64]         116,880
├─ModuleList: 1-14                            --                        --                        (recursive)
│    └─_DownsampleBlock: 2-6                  [16, 208, 32, 64]         [16, 128, 16, 32]         239,744
├─ModuleList: 1-13                            --                        --                        (recursive)
│    └─_ConvBlock: 2-7                        [16, 128, 16, 32]         [16, 208, 16, 32]         116,880
├─ModuleList: 1-14                            --                        --                        (recursive)
│    └─_DownsampleBlock: 2-8                  [16, 208, 16, 32]         [16, 128, 8, 16]          239,744
├─ModuleList: 1-13                            --                        --                        (recursive)
│    └─_ConvBlock: 2-9                        [16, 128, 8, 16]          [16, 208, 8, 16]          116,880
├─ModuleList: 1-14                            --                        --                        (recursive)
│    └─_DownsampleBlock: 2-10                 [16, 208, 8, 16]          [16, 256, 4, 8]           479,488
├─ModuleList: 1-13                            --                        --                        (recursive)
│    └─_ConvBlock: 2-11                       [16, 256, 4, 8]           [16, 336, 4, 8]           210,320
├─ModuleList: 1-14                            --                        --                        (recursive)
│    └─_DownsampleBlock: 2-12                 [16, 336, 4, 8]           [16, 256, 2, 4]           774,400
├─ModuleList: 1-13                            --                        --                        (recursive)
│    └─_ConvBlock: 2-13                       [16, 256, 2, 4]           [16, 336, 2, 4]           210,320
├─ModuleList: 1-14                            --                        --                        (recursive)
│    └─_DownsampleBlock: 2-14                 [16, 336, 2, 4]           [16, 512, 1, 2]           1,548,800
</code></pre>
<p>single <code>nn.ModuleList()</code>:</p>
<pre><code>MyNet                                     [16, 4, 128, 256]         [16, 3, 128, 256]         --
├─ModuleList: 1-1                             --                        --                        --
│    └─_ConvBlock: 2-1                        [16, 4, 128, 256]         [16, 84, 128, 256]        26,360
│    └─_DownsampleBlock: 2-2                  [16, 84, 128, 256]        [16, 64, 64, 128]         48,448
│    └─_ConvBlock: 2-3                        [16, 64, 64, 128]         [16, 144, 64, 128]        70,160
│    └─_DownsampleBlock: 2-4                  [16, 144, 64, 128]        [16, 128, 32, 64]         166,016
│    └─_ConvBlock: 2-5                        [16, 128, 32, 64]         [16, 208, 32, 64]         116,880
│    └─_DownsampleBlock: 2-6                  [16, 208, 32, 64]         [16, 128, 16, 32]         239,744
│    └─_ConvBlock: 2-7                        [16, 128, 16, 32]         [16, 208, 16, 32]         116,880
│    └─_DownsampleBlock: 2-8                  [16, 208, 16, 32]         [16, 128, 8, 16]          239,744
│    └─_ConvBlock: 2-9                        [16, 128, 8, 16]          [16, 208, 8, 16]          116,880
│    └─_DownsampleBlock: 2-10                 [16, 208, 8, 16]          [16, 256, 4, 8]           479,488
│    └─_ConvBlock: 2-11                       [16, 256, 4, 8]           [16, 336, 4, 8]           210,320
│    └─_DownsampleBlock: 2-12                 [16, 336, 4, 8]           [16, 256, 2, 4]           774,400
│    └─_ConvBlock: 2-13                       [16, 256, 2, 4]           [16, 336, 2, 4]           210,320
│    └─_DownsampleBlock: 2-14                 [16, 336, 2, 4]           [16, 512, 1, 2]           1,548,800
</code></pre>
","0","Question"
"79537716","","<p>im getting this problem where i have installed pytorch following these steps (<a href=""https://medium.com/@harunijaz/a-step-by-step-guide-to-installing-cuda-with-pytorch-in-conda-on-windows-verifying-via-console-9ba4cd5ccbef"" rel=""nofollow noreferrer"">https://medium.com/@harunijaz/a-step-by-step-guide-to-installing-cuda-with-pytorch-in-conda-on-windows-verifying-via-console-9ba4cd5ccbef</a>) exactly, but i can't get the cuda env to recognise the torch install</p>
…
