…
         frozenset({2, 3, 4}): 1,
         frozenset({1, 3, 5}): 1})
</code></pre>
<p>or sort and convert to tuples:</p>
<pre><code>from collections import Counter

Counter(tuple(sorted(x)) for x in A['history'])
</code></pre>
<p>Output:</p>
<pre><code>Counter({(1, 2, 3): 1,
         (2, 3, 4): 1,
         (1, 3, 5): 1})
</code></pre>
<p>This will run in <code>O(n)</code>.</p>
<p>Note that you could also use <a href=""https://pandas.pydata.org/docs/reference/api/pandas.Series.value_counts.html"" rel=""nofollow noreferrer""><code>value_counts</code></a>:</p>
<pre><code>A['history'].map(frozenset).value_counts()

history
(1, 2, 3)    1
(2, 3, 4)    1
(1, 3, 5)    1
Name: count, dtype: int64

A['history'].map(sorted).value_counts()

history
[1, 2, 3]    1
[2, 3, 4]    1
[1, 3, 5]    1
Name: count, dtype: int64
</code></pre>
","2024-06-30 01:22:01","-1","Answer"
"78687394","","Confusion about output sizes of GAN","<p>I am trying to understand a code, I am confused about the test cells. When i am printing the shape of the output it is hidden_output.shape =(num_test, 20, 4, 4), test_hidden_block_stride(hidden_output).shape) == (num_test, 20, 10, 10) and Gen_output.shape=(num_test, 1,28,28) for Mnist dataset. I am trying to understand how the sizes are being calculated here. Any help will be greatly appreciated!</p>
…
            nn.ConvTranspose2d(in_channels=128, out_channels=32, kernel_size=3, output_padding=1),
            nn.ReLU(),
            nn.ConvTranspose2d(in_channels=32, out_channels=3, kernel_size=3, output_padding=1),
            nn.Sigmoid()
        )

    def forward(self, x):
        x = self.encoder(x)
        x = self.decoder(x)
        return x
</code></pre>
<p>And here are the shapes given by the torchsummary package</p>
<pre><code>----------------------------------------------------------------
        Layer (type)               Output Shape         Param #
================================================================
            Conv2d-1         [-1, 32, 255, 255]             896
              ReLU-2         [-1, 32, 255, 255]               0
         MaxPool2d-3         [-1, 32, 127, 127]               0
            Conv2d-4        [-1, 128, 127, 127]          36,992
              ReLU-5        [-1, 128, 127, 127]               0
         MaxPool2d-6          [-1, 128, 63, 63]               0
            Conv2d-7          [-1, 128, 63, 63]         147,584
              ReLU-8          [-1, 128, 63, 63]               0
   ConvTranspose2d-9           [-1, 32, 66, 66]          36,896
             ReLU-10           [-1, 32, 66, 66]               0
  ConvTranspose2d-11            [-1, 3, 69, 69]             867
          Sigmoid-12            [-1, 3, 69, 69]               0
</code></pre>
<p>I have seen from another post that the <code>output_padding</code> option in the decoder part would help with the output shape but it hasn't worked for me.</p>
<p>I don't know what the problem might be, coming from Tensorflow I would've used an Upscale layer but from what I've seen this isn't the way to do it in PyTorch.</p>
<p>Could anyone explain to me why my shapes are broken with my current model? Thanks</p>
…
I have already split my data into train, test, and val, but does it make more sense to get the embeddings for a label1 dataset and label0 dataset and then combine and then split into train/test, so I don't have to worry about the mapping of the labels?</p>
","2024-02-04 17:06:58","0","Question"
"77934105","","Modifying Vision Transformer (ViT) Model in timm for Custom Head in PyTorch","<p>I am working with the Vision Transformer (ViT) model using PyTorch and the timm library. My goal is to modify the ViT model to replace the default classification head with a custom head that takes the mean of all tokens and adds a new classification layer.</p>
<p>deafult summary of the ViT model in timm is ending like this:</p>
<pre><code>       LayerNorm-247             [-1, 197, 768]           1,536
        Identity-248                  [-1, 768]               0
         Dropout-249                  [-1, 768]               0
          Linear-250                 [-1, 1000]         769,000
VisionTransformer-251                 [-1, 1000]               0

</code></pre>
<p>To remove the last layers so far I have coded:</p>
<pre><code>class VisionTransformerWithoutHead(nn.Module):
    
    def __init__(self, model_name):
        super(VisionTransformerWithoutHead, self).__init__()

        # Load the ViT model
        vit_model = timm.create_model(model_name, pretrained=True)

        # Remove the final layers
        self.features = nn.Sequential(*list(vit_model.children())[:-1])

    def forward(self, x):
        # Forward pass through the modified model
        output = self.features(x)
        return output
</code></pre>
<p>Summary is now ending with:</p>
<pre><code>       LayerNorm-247             [-1, 196, 768]           1,536
        Identity-248             [-1, 196, 768]               0
         Dropout-249             [-1, 196, 768]               0
</code></pre>
<p>It reduced the number of the tokens 197 to 196 and it seems to remove the class token.I would like to understand why this is happening and if there's a way to remove only the last layers while preserving the class token.</p>
","2024-02-03 23:22:43","0","Question"
"77933951","77933852","","<p>Yes, you are right, unfortunately, there is no such an option.</p>
<p>I think upgrading pytorch-CUDA from 11.0 to 11.2 is less critical then downgrading the <code>pytorch</code> version. In the first case it is minor version change <code>11.0 -&gt; 11.2</code>, in a last - it's (almost) major: <code>1.10.0 -&gt; 1.9.1</code></p>
…
